…
': './predictor_life_simple/hyperparams/small_2_layer_seq_cnn.toml', 'data_rule': 'B2/S', 'data_iters': 200, 'sys_size': 200}
Starting training...

Picking Dataset: ./predictor_life_simple/datasets/200-200-B2_S/
Saving Base Directory: 2025-10-17_20-54-00_tiny_2_layer_seq_cnn__200-200-B2_S


==========================================================================================
Layer (type:depth-idx)                   Output Shape              Param #
==========================================================================================
SimpleCNNSmall                           [1, 2, 200, 200]          --
©À©¤Conv2d: 1-1                            [1, 8, 200, 200]          408
©À©¤BatchNorm2d: 1-2                       [1, 8, 200, 200]          16
©À©¤ReLU: 1-3                              [1, 8, 200, 200]          --
©À©¤Conv2d: 1-4                            [1, 8, 200, 200]          1,608
©À©¤BatchNorm2d: 1-5                       [1, 8, 200, 200]          16
©À©¤ReLU: 1-6                              [1, 8, 200, 200]          --
©À©¤Conv2d: 1-7                            [1, 2, 200, 200]          402
==========================================================================================
Total params: 2,450
Trainable params: 2,450
Non-trainable params: 0
Total mult-adds (M): 96.72
==========================================================================================
Input size (MB): 0.32
Forward/backward pass size (MB): 10.88
Params size (MB): 0.01
Estimated Total Size (MB): 11.21
…
s': './predictor_life_simple/hyperparams/tiny_2_layer_seq_cnn.toml', 'data_rule': 'B2/S', 'data_iters': 200, 'sys_size': 200}
Starting training...

Picking Dataset: ./predictor_life_simple/datasets/200-200-B2_S/
Saving Base Directory: 2025-10-17_21-13-09_tiny_2_layer_seq_cnn__200-200-B2_S


==========================================================================================
Layer (type:depth-idx)                   Output Shape              Param #
==========================================================================================
SimpleCNNTiny                            [1, 2, 200, 200]          --
©À©¤Conv2d: 1-1                            [1, 1, 200, 200]          51
©À©¤BatchNorm2d: 1-2                       [1, 1, 200, 200]          2
©À©¤ReLU: 1-3                              [1, 1, 200, 200]          --
©À©¤Conv2d: 1-4                            [1, 1, 200, 200]          26
©À©¤BatchNorm2d: 1-5                       [1, 1, 200, 200]          2
©À©¤ReLU: 1-6                              [1, 1, 200, 200]          --
©À©¤Conv2d: 1-7                            [1, 2, 200, 200]          52
==========================================================================================
Total params: 133
Trainable params: 133
Non-trainable params: 0
Total mult-adds (M): 5.16
==========================================================================================
Input size (MB): 0.32
Forward/backward pass size (MB): 1.92
Params size (MB): 0.00
Estimated Total Size (MB): 2.24
==========================================================================================
…
 'hyperparameters': './predictor_life_simple/hyperparams/multiscale_0.toml', 'data_rule': 'B2/S', 'data_iters': 200, 'sys_size': 200}
Starting training...

Picking Dataset: ./predictor_life_simple/datasets/200-200-B2_S/
Saving Base Directory: 2025-10-17_21-35-42_multiscale_0__200-200-B2_S


==========================================================================================
Layer (type:depth-idx)                   Output Shape              Param #
==========================================================================================
MultiScale                               [1, 2, 200, 200]          --
©À©¤Sequential: 1-1                        [1, 2, 200, 200]          --
©¦    ©¸©¤Conv2d: 2-1                       [1, 2, 200, 200]          38
©¦    ©¸©¤BatchNorm2d: 2-2                  [1, 2, 200, 200]          4
©¦    ©¸©¤LeakyReLU: 2-3                    [1, 2, 200, 200]          --
©À©¤Sequential: 1-2                        [1, 2, 200, 200]          --
©¦    ©¸©¤Conv2d: 2-4                       [1, 2, 200, 200]          102
©¦    ©¸©¤BatchNorm2d: 2-5                  [1, 2, 200, 200]          4
©¦    ©¸©¤LeakyReLU: 2-6                    [1, 2, 200, 200]          --
©À©¤Sequential: 1-3                        [1, 2, 200, 200]          --
©¦    ©¸©¤Conv2d: 2-7                       [1, 2, 200, 200]          38
©¦    ©¸©¤BatchNorm2d: 2-8                  [1, 2, 200, 200]          4
©¦    ©¸©¤LeakyReLU: 2-9                    [1, 2, 200, 200]          --
©À©¤Sequential: 1-4                        [1, 2, 200, 200]          --
©¦    ©¸©¤Conv2d: 2-10                      [1, 4, 200, 200]          604
©¦    ©¸©¤BatchNorm2d: 2-11                 [1, 4, 200, 200]          8
©¦    ©¸©¤ReLU: 2-12                        [1, 4, 200, 200]          --
©¦    ©¸©¤Conv2d: 2-13                      [1, 2, 200, 200]          202
==========================================================================================
Total params: 1,004
Trainable params: 1,004
Non-trainable params: 0
Total mult-adds (M): 39.36
==========================================================================================
Input size (MB): 0.32
Forward/backward pass size (MB): 7.04
Params size (MB): 0.00
Estimated Total Size (MB): 7.36
…
